…
with comparable accuracy. The regular model architecture, the QAT prepared version and final quantized implementation are detailed in Tables I, II, and III, respectively, including layer-specific quantization parameters. C. Model deployment The quantized TensorFlow Lite model was deployed on the MCXN947 microcontroller both using its eIQ Neutron NPU accelerator and the ARM Cortex-M33 CPU. The quantized model was converted to an NPU-compatible format through NXP s eIQ Toolkit. As shown in Figure 6, 2 Table I REGULAR NEURAL NETWORK ARCHITECTURE Layer (type) Output Shape Param input (InputLayer) (None, 98, 20, 1) 0 conv1 (Conv2D) (None, 96, 18, 32) 320 bn1 (BatchNormalization) (None, 96, 18, 32) 128 pool1 (MaxPooling2D) (None, 48, 9, 32) 0 conv2 (Conv2D) (None, 46, 7, 64) 18496 bn2 (BatchNormalization) (None, 46, 7, 64) 256 pool2 (MaxPooling2D) (None, 23, 3, 64) 0 gap (GlobalAveragePooling2D) (None, 64) 0 dropout (Dropout) (None, 64) 0 fc1 (Dense) (None, 128) 8320 output (Dense) (None, 1) 129 Total params: 27649 (108.00 KB) Trainable params: 27457 (107.25 KB) Non-trainable params: 192 (768.00 B) Table II QAT PREPARED NEURAL NETWORK ARCHITECTURE Layer (type) Output Shape Param input (InputLayer) (None, 98, 20, 1) 0 quantize_layer (QuantizeLayer) (None, 98, 20, 1) 3 quant_conv1 (QuantizeWrapperV2) (None, 96, 18, 32) 387 quant_bn1 (QuantizeWrapperV2) (None, 96, 18, 32) 129 quant_pool1 (QuantizeWrapperV2) (None, 48, 9, 32) 1 quant_conv2 (QuantizeWrapperV2) (None, 46, 7, 64) 18627 quant_bn2 (QuantizeWrapperV2) (None, 46, 7, 64) 257 pool2 (MaxPooling2D) (None, 23, 3, 64) 0 gap (GlobalAveragePooling2D) (None, 64) 0 quant_dropout (QuantizeWrapperV2) (None, 64) 1 quant_fc1 (QuantizeWrapperV2) (None, 128) 8325 quant_output (QuantizeWrapperV2) (None, 1) 134 Total params: 27864 (108.84 KB) Trainable params: 27457 (107.25 KB) Non-trainable params: 407 (1.59 KB) the conversion process restructured certain layers to take advantage of the dedicated hardware acceleration capabilities of the NPU. Both models are converted to static arrays and stored in flash memory of the MCU. Figure 6. Model architecture after NPU conversion [13]. III. RESULTS The MFCC feature extraction demonstrated efficient processing with a average computation time of 431 µs Table III QUANTIZED MODEL ARCHITECTURE Layer (type) Output Shape Param InputLayer [-1, 98, 20, 1] 0 Conv2D [-1, 96, 18, 32] 320 weights 32 biases MUL, ADD (BatchNorm) [-1, 96, 18, 32] 64 scale 32 offset MaxPool2D [-1, 48, 9, 32] 0 Conv2D [-1, 46, 7, 64] 18,432 weights 64 biases MUL, ADD (BatchNorm) [-1, 46, 7, 64] 64 scale 64 offset MaxPool2D [-1, 23, 3, 64] 0 Mean [-1, 64] 0 FullyConnected [-1, 128] 8,192 weights 128 biases FullyConnected [-1, 1] 128 weights 1 bias Logistic [-1, 1] 0 Total params: 27521 (28.20 KB) Trainable params: 27297 (27.97 KB) Non-trainable params: 224 (224 B) per frame on Cortex-M33. Evaluation of three variants of the model revealed significant performance differences. The regular floating-point model achieved 99.14 accuracy, with the confusion matrix shown in Table IV. On the Intel Core i5-10210U CPU, this model required 58.67 ms per inference with a 
…
eployed on the MCXN947 microcontroller both using its eIQ Neutron NPU accelerator and the ARM Cortex-M33 CPU. The quantized model was converted to an NPU-compatible format through NXP s eIQ Toolkit.\n\n--- Segment 5 ---\nC. Model deployment The quantized TensorFlow Lite model was deployed on the MCXN947 microcontroller both using its eIQ Neutron NPU accelerator and the ARM Cortex-M33 CPU. The quantized model was converted to an NPU-compatible format through NXP s eIQ Toolkit. As shown in Figure 6, 2 Table I REGULAR NEURAL NETWORK ARCHITECTURE Layer (type) Output Shape Param input (InputLayer) (None, 98, 20, 1) 0 conv1 (Conv2D) (None, 96, 18, 32) 320 bn1 (BatchNormalization) (None, 96, 18, 32) 128 pool1 (MaxPooling2D) (None, 48, 9, 32) 0 conv2 (Conv2D) (None, 46, 7, 64) 18496 bn2 (BatchNormalization) (None, 46, 7, 64) 256 pool2 (MaxPooling2D) (None, 23, 3, 64) 0 gap (GlobalAveragePooling2D) (None, 64) 0 dropout (Dropout) (None, 64) 0 fc1 (Dense) (None, 128) 8320 output (Dense) (None, 1) 129 Total params: 27649 (108.00 KB) Trainable params: 27457 (107.25 KB) Non-trainable params: 192 (768.00 B) Table II QAT PREPARED NEURAL NETWORK ARCHITECTURE Layer (type) Output Shape Param input (InputLayer) (None, 98, 20, 1) 0 quantize_layer (QuantizeLayer) (None, 98, 20, 1) 3 quant_conv1 (QuantizeWrapperV2) (None, 96, 18, 32) 387 quant_bn1 (QuantizeWrapperV2) (None, 96, 18, 32) 129 quant_pool1 (QuantizeWrapperV2) (None, 48, 9, 32) 1 quant_conv2 (QuantizeWrapperV2) (None, 46, 7, 64) 18627 quant_bn2 (QuantizeWrapperV2) (None, 46, 7, 64) 257 pool2 (MaxPooling2D) (None, 23, 3, 64) 0 gap (GlobalAveragePooling2D) (None, 64) 0 quant_dropout (QuantizeWrapperV2) (None, 64) 1 quant_fc1 (QuantizeWrapperV2) (None, 128) 8325 quant_output (QuantizeWrapperV2) (None, 1) 134 Total params: 27864 (108.84 KB) Trainable params: 27457 (107.25 KB) Non-trainable params: 407 (1.59 KB) the conversion process restructured certain layers to take advantage of the dedicated hardware acceleration capabilities of the NPU.\n\n--- Segment 6 ---\nThe quantized model was converted to an NPU-compatible format through NXP s eIQ Toolkit. As shown in Figure 6, 2 Table I REGULAR NEURAL NETWORK ARCHITECTURE Layer (type) Output Shape Param input (InputLayer) (None, 98, 20, 1) 0 conv1 (Conv2D) (None, 96, 18, 32) 320 bn1 (BatchNormalization) (None, 96, 18, 32) 128 pool1 (MaxPooling2D) (None, 48, 9, 32) 0 conv2 (Conv2D) (None, 46, 7, 64) 18496 bn2 (BatchNormalization) (None, 46, 7, 64) 256 pool2 (MaxPooling2D) (None, 23, 3, 64) 0 gap (GlobalAveragePooling2D) (None, 64) 0 dropout (Dropout) (None, 64) 0 fc1 (Dense) (None, 128) 8320 output (Dense) (None, 1) 129 Total params: 27649 (108.00 KB) Trainable params: 27457 (107.25 KB) Non-trainable params: 192 (768.00 B) Table II QAT PREPARED NEURAL NETWORK ARCHITECTURE Layer (type) Output Shape Param input (InputLayer) (None, 98, 20, 1) 0 quantize_layer (QuantizeLayer) (None, 98, 20, 1) 3 quant_conv1 (QuantizeWrapperV2) (None, 96, 18, 32) 387 quant_bn1 (QuantizeWrapperV2) (None, 96, 18, 32) 129 quant_pool1 (QuantizeWrapperV2) (None, 48, 9, 32) 1 quant_conv2 (QuantizeWrapperV2) (None, 46, 7, 64) 18627 quant_bn2 (QuantizeWrapperV2) (None, 46, 7, 64) 257 pool2 (MaxPooling2D) (None, 23, 3, 64) 0 gap (GlobalAveragePooling2D) (None, 64) 0 quant_dropout (QuantizeWrapperV2) (None, 64) 1 quant_fc1 (QuantizeWrapperV2) (None, 128) 8325 quant_output (QuantizeWrapperV2) (None, 1) 134 Total params: 27864 (108.84 KB) Trainable params: 27457 (107.25 KB) Non-trainable params: 407 (1.59 KB) the conversion process restructured certain layers to take advantage of the dedicated hardware acceleration capabilities of the NPU. Both models are converted to static arrays and stored in flash memory of the MCU.\n\n--- Segment 7 ---\nAs shown in Figure 6, 2 Table I REGULAR NEURAL NETWORK ARCHITECTURE Layer (type) Output Shape Param input (InputLayer) (None, 98, 20, 1) 0 conv1 (Conv2D) (None, 96, 18, 32) 320 bn1 (BatchNormalization) (None, 96, 18, 32) 128 pool1 (MaxPooling2D) (None, 48, 9, 32) 0 conv2 (Conv2D) (None, 46, 7, 64) 18496 bn2 (BatchNormalization) (None, 46, 7, 64) 256 pool2 (MaxPooling2D) (None, 23, 3, 64) 0 gap (GlobalAveragePooling2D) (None, 64) 0 dropout (Dropout) (None, 64) 0 fc1 (Dense) (None, 128) 8320 output (Dense) (None, 1) 129 Total params: 27649 (108.00 KB) Trainable params: 27457 (107.25 KB) Non-trainable params: 192 (768.00 B) Table II QAT PREPARED NEURAL NETWORK ARCHITECTURE Layer (type) Output Shape Param input (InputLayer) (None, 98, 20, 1) 0 quantize_layer (QuantizeLayer) (None, 98, 20, 1) 3 quant_conv1 (QuantizeWrapperV2) (None, 96, 18, 32) 387 quant_bn1 (QuantizeWrapperV2) (None, 96, 18, 32) 129 quant_pool1 (QuantizeWrapperV2) (None, 48, 9, 32) 1 quant_conv2 (QuantizeWrapperV2) (None, 46, 7, 64) 18627 quant_bn2 (QuantizeWrapperV2) (None, 46, 7, 64) 257 pool2 (MaxPooling2D) (None, 23, 3, 64) 0 gap (GlobalAveragePooling2D) (None, 64) 0 quant_dropout (QuantizeWrapperV2) (None, 64) 1 quant_fc1 (QuantizeWrapperV2) (None, 128) 8325 quant_output (QuantizeWrapperV2) (None, 1) 134 Total params: 27864 (108.84 KB) Trainable params: 27457 (107.25 KB) Non-trainable params: 407 (1.59 KB) the conversion process restructured certain layers to take advantage of the dedicated hardware acceleration capabilities of the NPU. Both models are converted to static arrays and stored in flash memory of the MCU. Figure 6.\n\n--- Segment 8 ---\nBoth models are converted to static arrays and stored in flash memory of the MCU. Figure 6. Model architecture after NPU conversion [13]. III. RESULTS The MFCC feature extraction demonstrated efficient processing with a average computation time of 431 µs Table III QUANTIZED MODEL ARCHITECTURE Layer (type) Output Shape Param InputLayer [-1, 98, 20, 1] 0 Conv2D [-1, 96, 18, 32] 320 weights 32 biases MUL, ADD (BatchNorm) [-1, 96, 18, 32] 64 scale 32 offset MaxPool2D [-1, 48, 9, 32] 0 Conv2D [-1, 46, 7, 64] 18,432 weights 64 biases MUL, ADD (BatchNorm) [-1, 46, 7, 64] 64 scale 64 offset MaxPool2D [-1, 23, 3, 64] 0 Mean [-1, 64] 0 FullyConnected [-1, 128] 8,192 weights 128 biases FullyConnected [-1, 1] 128 weights 1 bias Logistic [-1, 1] 0 Total params: 27521 (28.20 KB) Trainable params: 27297 (27.97 KB) Non-trainable params: 224 (224 B) per frame on Cortex-M33. Evaluation of three variants of the model revealed significant performance differences. The regular floating-point model achieved 99.14 accuracy, with the confusion matrix shown in Table IV. On the Intel Core i5-10210U CPU, this model required 58.67 ms per inference with a 
…
