…
on overlap. In both diagrams, alternating colors are used to distinguish the two interleaved microbatches being processed. Moreover, this design is notably different from our decode-phase pipeline ( 4.2.3), where commu- nication logic is more tightly coupled with compute streams due to different latency and throughput requirements.",
    "source": "2506.12708v3_Serving_Large_Language_Models_on_Huawei_CloudMatri.pdf",
    "length": 2211,
    "tokens": 476
  },
  {
    "text": "As shown in Figure 6, 2 Table I REGULAR NEURAL NETWORK ARCHITECTURE Layer (type) Output Shape Param input (InputLayer) (None, 98, 20, 1) 0 conv1 (Conv2D) (None, 96, 18, 32) 320 bn1 (BatchNormalization) (None, 96, 18, 32) 128 pool1 (MaxPooling2D) (None, 48, 9, 32) 0 conv2 (Conv2D) (None, 46, 7, 64) 18496 bn2 (BatchNormalization) (None, 46, 7, 64) 256 pool2 (MaxPooling2D) (None, 23, 3, 64) 0 gap (GlobalAveragePooling2D) (None, 64) 0 dropout (Dropout) (None, 64) 0 fc1 (Dense) (None, 128) 8320 output (Dense) (None, 1) 129 Total params: 27649 (108.00 KB) Trainable params: 27457 (107.25 KB) Non-trainable params: 192 (768.00 B) Table II QAT PREPARED NEURAL NETWORK ARCHITECTURE Layer (type) Output Shape Param input (InputLayer) (None, 98, 20, 1) 0 quantize_layer (QuantizeLayer) (None, 98, 20, 1) 3 quant_conv1 (QuantizeWrapperV2) (None, 96, 18, 32) 387 quant_bn1 (QuantizeWrapperV2) (None, 96, 18, 32) 129 quant_pool1 (QuantizeWrapperV2) (None, 48, 9, 32) 1 quant_conv2 (QuantizeWrapperV2) (None, 46, 7, 64) 18627 quant_bn2 (QuantizeWrapperV2) (None, 46, 7, 64) 257 pool2 (MaxPooling2D) (None, 23, 3, 64) 0 gap (GlobalAveragePooling2D) (None, 64) 0 quant_dropout (QuantizeWrapperV2) (None, 64) 1 quant_fc1 (QuantizeWrapperV2) (None, 128) 8325 quant_output (QuantizeWrapperV2) (None, 1) 134 Total params: 27864 (108.84 KB) Trainable params: 27457 (107.25 KB) Non-trainable params: 407 (1.59 KB) the conversion process restructured certain layers to take advantage of the dedicated hardware acceleration capabilities of the NPU. Both models are converted to static arrays and stored in flash memory of the MCU. Figure 6.",
    "source": "2506.08911v1_Implementing_Keyword_Spotting_on_the_MCUX947_Micro.pdf",
…
